Training with lr=0.01, dropout=0.1, embed_dim=768, batch_size=16
1200

Model Summary:
====================================================================================================
Layer (type:depth-idx)                             Output Shape              Param #
====================================================================================================
RetNetModel                                        [1, 512, 10000]           --
├─RetNetDecoder: 1-1                               [1, 512, 10000]           --
│    └─Embedding: 2-1                              [1, 512, 768]             7,680,000
│    └─Dropout: 2-2                                [1, 512, 768]             --
│    └─RetNetRelPos: 2-3                           [512, 256]                --
│    └─ModuleList: 2-4                             --                        --
│    │    └─DecoderLayer: 3-1                      [1, 512, 768]             6,895,104
│    │    └─DecoderLayer: 3-2                      [1, 512, 768]             6,895,104
│    │    └─DecoderLayer: 3-3                      [1, 512, 768]             6,895,104
│    │    └─DecoderLayer: 3-4                      [1, 512, 768]             6,895,104
│    │    └─DecoderLayer: 3-5                      [1, 512, 768]             6,895,104
│    │    └─DecoderLayer: 3-6                      [1, 512, 768]             6,895,104
│    │    └─DecoderLayer: 3-7                      [1, 512, 768]             6,895,104
│    │    └─DecoderLayer: 3-8                      [1, 512, 768]             6,895,104
│    │    └─DecoderLayer: 3-9                      [1, 512, 768]             6,895,104
│    │    └─DecoderLayer: 3-10                     [1, 512, 768]             6,895,104
│    │    └─DecoderLayer: 3-11                     [1, 512, 768]             6,895,104
│    │    └─DecoderLayer: 3-12                     [1, 512, 768]             6,895,104
│    └─RMSNorm: 2-5                                [1, 512, 768]             768
│    └─Linear: 2-6                                 [1, 512, 10000]           7,680,000
====================================================================================================
Total params: 98,102,016
Trainable params: 98,102,016
Non-trainable params: 0
Total mult-adds (Units.GIGABYTES): 18.18
====================================================================================================
Input size (MB): 0.00
Forward/backward pass size (MB): 517.54
Params size (MB): 392.41
…
