…
dia.com/Download/index.aspx Alternatively, go to: https://pytorch.org to install a PyTorch version that has been compiled with your version of the CUDA driver. (Triggered internally at ../c10/cuda/CUDAFunctions.cpp:108.)
  return torch._C._cuda_getDeviceCount() > 0

Model Summary:
===============================================================================================
Layer (type:depth-idx)                        Output Shape              Param #
===============================================================================================
RetNetModel                                   [1, 128, 28783]           --
├─RetNetDecoder: 1-1                          [1, 128, 28783]           --
│    └─Embedding: 2-1                         [1, 128, 32]              921,056
│    └─Dropout: 2-2                           [1, 128, 32]              --
│    └─RetNetRelPos: 2-3                      [128, 4]                  --
│    └─ModuleList: 2-4                        --                        --
│    │    └─DecoderLayer: 3-1                 [1, 128, 32]              11,328
│    └─RMSNorm: 2-5                           [1, 128, 32]              32
│    └─Linear: 2-6                            [1, 128, 28783]           921,056
===============================================================================================
Total params: 1,853,472
Trainable params: 1,853,472
Non-trainable params: 0
Total mult-adds (Units.MEGABYTES): 2.63
===============================================================================================
Input size (MB): 0.00
Forward/backward pass size (MB): 29.93
Params size (MB): 7.41
Estimated Total Size (MB): 37.35
…
